src/modules/ZoomIt/ZoomIt/selfie_segmentation.onnx (onnx, 447658 bytes, 109 tensors)

segment/filter:0 f4 [16, 1, 2, 2]
00000000: 0080 84bd 00a0 0440 0080 40bd 00c0 1440
00000010: 00e0 67be 0000 b2be 0060 b1bd 00c0 66be
00000020: 0060 32bf 0060 d0bd 0060 30bf 00c0 8fbe
00000030: 00c0 c93e 0000 4b3f 0080 293f 00e0 8e3f
00000040: 00e0 40c0 0080 a1c1 00a0 dbbf 0060 0dc1
00000050: 00a0 0fbe 00a0 b2be 0080 34be 00e0 c1be
00000060: 0020 103e 0020 9f3f 0020 b03e 0040 b43f
00000070: 0020 b8bf 0060 01c0 0040 97bf 0000 eebf
00000080: 00c0 64be 0040 86be 00a0 a6be 0060 b6be
00000090: 0020 61bf 0060 02c0 00e0 593e 0040 adbf
000000a0: 0000 223f 0000 4f3d 00e0 4c3f 00e0 7f3e
000000b0: 00a0 21bf 0000 b3bd 0020 41bf 00e0 5abe
000000c0: 0000 7340 00e0 7c40 0020 f43f 0020 e03f
000000d0: 00a0 b73f 0020 4e3e 00e0 2bbf 0080 e3bf
000000e0: 0060 fe3f 0080 25bc 0060 0c40 00e0 9ebb
000000f0: 00e0 ccbf 00e0 bfbf 0060 f23d 0060 0e3e
-0.064697266 2.0722656 -0.04699707 2.3242188 -0.22644043 -0.34765625 -0.08660889 -0.2253418
-0.69677734 -0.101745605 -0.68896484 -0.28076172 0.39404297 0.79296875 0.6621094 1.1162109
-3.0136719 -20.1875 -1.7158203 -8.8359375 -0.14025879 -0.34887695 -0.17626953 -0.3786621
0.14074707 1.2431641 0.34399414 1.4082031 -1.4384766 -2.0214844 -1.1816406 -1.859375
-0.22338867 -0.26220703 -0.32543945 -0.35620117 -0.87939453 -2.0371094 0.21276855 -1.3535156
0.6328125 0.05053711 0.80029297 0.24987793 -0.63134766 -0.087402344 -0.75439453 -0.21374512
3.796875 3.9511719 1.9072266 1.7509766 1.4345703 0.20129395 -0.6713867 -1.7773438
1.9873047 -0.010101318 2.1933594 -0.00484848 -1.6005859 -1.4990234 0.11834717 0.13903809

depthwise_conv2d_9/y:0 f4 [16]
00000000: 00a0 463f 00a0 553e 0080 d03e 0080 7dbe
00000010: 0040 d7bd 0020 c1bf 00c0 d3ba 00e0 1640
00000020: 0020 343d 0060 41be 00e0 0640 0000 d1bd
00000030: 0080 23bf 0020 92be 00a0 c2bc 00a0 b4be
0.7758789 0.20861816 0.40722656 -0.2475586 -0.10510254 -1.5087891 -0.0016155243 2.3574219
0.04397583 -0.18884277 2.1074219 -0.10205078 -0.6386719 -0.2854004 -0.023757935 -0.3527832

depthwise_conv2d_8/y:0 f4 [24]
00000000: 0080 2cbf 0080 93bf 0000 9d3f 00a0 f23f
00000010: 00c0 133f 0040 d13d 00c0 5040 00a0 b7be
00000020: 0060 a63c 0060 ed3e 0060 f03e 00e0 943f
00000030: 00e0 5c40 00a0 96bf 0020 3abf 00e0 6a3f
00000040: 0040 ca3d 0000 3ebf 00e0 a8be 0000 6abf
00000050: 00c0 84bc 00a0 82bd 0060 c93e 00c0 cbbe
-0.6738281 -1.1523438 1.2265625 1.8955078 0.57714844 0.10217285 3.2617188 -0.35864258
0.020309448 0.46362305 0.46948242 1.1630859 3.4511719 -1.1767578 -0.7270508 0.91748047
0.09875488 -0.7421875 -0.32983398 -0.9140625 -0.016204834 -0.06378174 0.39331055 -0.39794922

depthwise_conv2d_7/y:0 f4 [96]
00000000: 00c0 d53e 00e0 acbf 0040 d0bf 00c0 92be
00000010: 00e0 93bd 0060 c13d 0020 543f 00c0 26c0
00000020: 00c0 9f3e 0020 92be 0000 1f3f 0040 dd3c
00000030: 00e0 13bf 0020 1740 00c0 53bf 0020 61bf
00000040: 0080 00be 00c0 ccbe 00c0 49be 00e0 06bf
00000050: 00a0 ccbd 00c0 68be 0080 d7bf 00e0 93be
00000060: 0020 bd3d 0040 02bf 0080 3fbe 0040 5cbf
00000070: 0040 fbbf 0040 f3be 00a0 00be 0040 91be
00000080: 0060 ebbe 0040 b7bf 0040 e63d 00c0 1f3e
00000090: 00e0 1a3f 0040 59bf 00a0 14bf 00a0 1e3f
000000a0: 00c0 4abf 0060 49bf 0080 83bd 0020 a5be
000000b0: 0080 933f 00c0 0d3b 0000 aabe 0060 543e
000000c0: 0080 a4bd 0000 9b3f 00c0 9fbe 0020 183f
000000d0: 00c0 e2be 0080 c3bc 00a0 10bf 00c0 163e
000000e0: 0060 90be 00c0 4cbe 0020 08bf 0020 103f
000000f0: 00e0 48bf 0060 94bf 0000 31bf 00e0 49bf
00000100: 0020 d9be 0020 bebe 0020 73bf 0020 953f
00000110: 00e0 e13b 0000 983e 00a0 873e 00e0 97bf
00000120: 0040 a6be 00e0 293f 0040 c4be 0020 63bf
00000130: 00e0 6dbe 0060 fdbb 00e0 80be 00e0 313d
00000140: 0040 0d3f 0080 9fbb 00a0 783f 0080 0cbf
00000150: 00a0 80bf 00e0 3ebf 0000 c3be 00c0 6fbf
00000160: 0000 1ebf 0040 0cbe 00e0 023e 0000 acbe
00000170: 00a0 4f3f 0040 ee3e 00c0 853f 00e0 053f
0.41748047 -1.3505859 -1.6269531 -0.2866211 -0.07220459 0.09442139 0.8286133 -2.6054688
0.31201172 -0.2854004 0.62109375 0.027008057 -0.5776367 2.3613281 -0.82714844 -0.87939453
-0.12548828 -0.39990234 -0.19702148 -0.52685547 -0.09991455 -0.22729492 -1.6835938 -0.28881836
0.09234619 -0.50878906 -0.18701172 -0.86035156 -1.9628906 -0.47509766 -0.12561035 -0.2836914
-0.4597168 -1.4316406 0.11242676 0.15600586 0.60498047 -0.8486328 -0.5805664 0.6196289
-0.7919922 -0.7866211 -0.064208984 -0.32250977 1.1523438 0.0021629333 -0.33203125 0.20739746
-0.080322266 1.2109375 -0.31201172 0.5942383 -0.4428711 -0.023864746 -0.5649414 0.1472168
-0.28198242 -0.19995117 -0.5317383 0.5629883 -0.78466797 -1.1591797 -0.69140625 -0.7885742
-0.42407227 -0.3713379 -0.94970703 1.1650391 0.006893158 0.296875 0.26489258 -1.1865234
-0.32470703 0.6635742 -0.38330078 -0.88720703 -0.2322998 -0.0077323914 -0.25170898 0.043426514
0.5517578 -0.0048675537 0.9711914 -0.5488281 -1.0048828 -0.74560547 -0.38085938 -0.93652344
-0.6171875 -0.13696289 0.12780762 -0.3359375 0.81103516 0.46533203 1.0449219 0.5229492

depthwise_conv2d_6/y:0 f4 [96]
00000000: 0020 d8be 0000 d93f 0080 15c0 0080 45be
00000010: 00a0 30bf 0080 3cbf 0020 5dbf 0040 e8be
00000020: 0040 30bf 00c0 d4be 00e0 98bf 0040 fc3f
00000030: 0040 0fbf 0040 1fbe 0000 0abe 0060 043f
00000040: 00e0 7a3f 0040 ecbe 0000 04be 0020 f4be
00000050: 00a0 8dbe 0080 083f 0080 e1be 0020 09bc
00000060: 00e0 8bbd 00c0 b13e 00e0 153f 0020 8cbe
00000070: 00e0 55bf 00e0 433d 0060 5dbf 0040 10c0
00000080: 0000 dabe 0080 3ebf 00a0 e4bf 0040 9abe
00000090: 00e0 373e 0000 2dbe 0060 f33e 00e0 b13e
000000a0: 00a0 febf 0040 06c0 0080 973f 0060 4dbe
000000b0: 00a0 7cbf 0000 5a3e 0080 893f 00c0 50bf
000000c0: 0080 eabd 0080 89bf 0060 f1bf 00e0 ebbe
000000d0: 0080 cabb 0060 50be 00a0 6cbf 0040 57be
000000e0: 00c0 38c0 0000 473f 0040 09c0 00a0 1c3e
000000f0: 00e0 c8bf 00c0 303e 00c0 2fbf 00c0 1ebf
00000100: 0040 1fc0 0040 e3be 0080 6c3e 0000 c23e
00000110: 0060 813e 00a0 03bf 0000 3dbd 0080 19bf
00000120: 0020 0f3f 0000 6fbd 00c0 753d 0080 90bf
00000130: 00a0 163f 0000 13be 00c0 c4bf 00c0 d13f
00000140: 00a0 a3bf 00e0 e4bf 0060 61bf 00c0 d0be
00000150: 0080 253f 0040 38c0 0080 3ebf 00c0 313f
00000160: 0000 6e3f 00a0 223d 0000 3b3e 0000 bbbe
00000170: 0060 68bd 00a0 e3be 00a0 233f 0080 78be
-0.42211914 1.6953125 -2.3359375 -0.1928711 -0.6899414 -0.7363281 -0.86376953 -0.45361328
-0.68847656 -0.41552734 -1.1943359 1.9707031 -0.5595703 -0.15551758 -0.13476562 0.51708984
0.97998047 -0.46142578 -0.12890625 -0.47680664 -0.27661133 0.5332031 -0.4404297 -0.008369446
-0.06829834 0.34716797 0.5854492 -0.27368164 -0.8354492 0.047821045 -0.8647461 -2.2539062
-0.42578125 -0.7441406 -1.7861328 -0.30126953 0.17956543 -0.16894531 0.4753418 0.3474121
-1.9892578 -2.0976562 1.1835938 -0.20056152 -0.9868164 0.21289062 1.0742188 -0.8154297
-0.11450195 -1.0742188 -1.8857422 -0.46069336 -0.0061798096 -0.20349121 -0.9243164 -0.21020508
-2.8867188 0.77734375 -2.1445312 0.1529541 -1.5693359 0.17260742 -0.68652344 -0.6201172
-2.4882812 -0.44384766 0.23095703 0.37890625 0.25268555 -0.51416016 -0.046142578 -0.5996094
0.55908203 -0.05834961 0.05999756 -1.1289062 0.5883789 -0.14355469 -1.5371094 1.6386719
-1.2783203 -1.7880859 -0.8803711 -0.40771484 0.6464844 -2.8789062 -0.7441406 0.69433594
0.9296875 0.03970337 0.18261719 -0.36523438 -0.056732178 -0.44458008 0.63916016 -0.24267578

depthwise_conv2d_5/y:0 f4 [128]
00000000: 0000 82bf 00c0 673c 00e0 e23f 0020 b13e
00000010: 0060 fdba 00e0 cd3e 00c0 9e3d 0040 10bc
00000020: 0020 55c0 0060 86bf 0040 2d3e 0040 683d
00000030: 00a0 2ebf 0000 7f3e 0020 34bf 0020 23bf
00000040: 00e0 dd3e 00e0 d33e 00e0 aabe 0080 2ebe
00000050: 0020 7cbd 0060 bdbf 00e0 1ac0 0040 afbf
00000060: 00e0 12bd 0040 b53f 0080 f43e 0000 ddbd
00000070: 00e0 d03c 0040 92be 0060 b03a 00c0 263f
00000080: 0060 843d 00a0 4ebf 00c0 353e 0080 00c0
00000090: 0000 3abd 00c0 bcbe 0000 75bf 0020 30bd
000000a0: 0040 51be 0040 a1be 00c0 1740 00c0 b4be
000000b0: 00c0 b23e 00e0 29bf 0040 633f 0020 123f
000000c0: 00c0 21bf 00c0 70bd 00a0 ddbe 00a0 643d
000000d0: 00a0 493f 00e0 0b3f 0040 94bf 00c0 d9bf
000000e0: 00a0 943e 0020 963e 0040 d5be 0040 9ebe
000000f0: 00a0 c03e 0080 3a3f 0020 783f 0000 aebe
00000100: 00e0 a3be 0060 8fbf 00e0 523f 0080 453e
00000110: 00c0 f4bd 00a0 de3d 00e0 663e 0080 c83f
00000120: 0020 813e 00a0 e2bf 00e0 fcbd 00c0 853d
00000130: 0020 143f 0020 463e 00c0 cb3d 0040 11bf
00000140: 00e0 dbbf 0080 c7be 0060 f2be 00e0 513f
00000150: 0020 0abf 00c0 2abf 0040 4940 0060 2abe
00000160: 0020 b1bf 00a0 8ebe 00a0 43be 0080 d1be
00000170: 0020 0ebf 00e0 22bd 0020 a6bf 0040 cdbe
00000180: 0020 77bf 00c0 183e 00a0 9b3c 0080 1c3f
00000190: 00a0 4bbd 0000 e4bd 0080 97bf 0080 61be
000001a0: 0000 7fbe 0000 9cbe 00c0 7fbf 0060 bcbf
000001b0: 00e0 77bf 00a0 613e 0020 9a3e 00e0 2a3c
000001c0: 0040 0e3c 00e0 1b3e 00a0 93bf 0080 9c3e
000001d0: 0080 21bf 0060 4cbb 0020 84bf 00e0 56be
000001e0: 0060 8bbd 00c0 2b3f 0040 333e 0080 cfbf
000001f0: 00e0 4b3f 0040 14bf 00e0 d73c 00c0 99be
-1.015625 0.014144897 1.7724609 0.34594727 -0.0019330978 0.4020996 0.07751465 -0.008804321
-3.3300781 -1.0498047 0.16918945 0.05670166 -0.6821289 0.24902344 -0.7036133 -0.63720703
0.4333496 0.41381836 -0.33374023 -0.17041016 -0.061553955 -1.4794922 -2.4199219 -1.3691406
-0.035858154 1.4160156 0.47753906 -0.107910156 0.025497437 -0.28564453 0.0013456345 0.6513672
0.06463623 -0.8071289 0.17749023 -2.0078125 -0.045410156 -0.36865234 -0.95703125 -0.042999268
-0.2043457 -0.3149414 2.3710938 -0.35302734 0.3491211 -0.6635742 0.8876953 0.5708008
-0.63183594 -0.058776855 -0.43286133 0.05581665 0.78759766 0.5463867 -1.1582031 -1.7011719
0.2902832 0.2932129 -0.4165039 -0.30908203 0.3762207 0.7285156 0.9692383 -0.33984375
-0.32006836 -1.1201172 0.82373047 0.1928711 -0.119506836 0.10870361 0.22546387 1.5664062
0.25219727 -1.7705078 -0.12347412 0.06530762 0.5786133 0.19348145 0.099487305 -0.5673828
-1.7177734 -0.38964844 -0.47338867 0.8198242 -0.5395508 -0.6669922 3.1445312 -0.16638184
-1.3837891 -0.27856445 -0.19104004 -0.4091797 -0.5551758 -0.039764404 -1.2978516 -0.4008789
-0.96533203 0.14916992 0.018997192 0.6113281 -0.049713135 -0.111328125 -1.1835938 -0.22021484
-0.24902344 -0.3046875 -0.99902344 -1.4716797 -0.9682617 0.22033691 0.3010254 0.010429382
0.008682251 0.15222168 -1.1533203 0.30566406 -0.6308594 -0.003118515 -1.0322266 -0.20983887
-0.0680542 0.67089844 0.17504883 -1.6210938 0.7963867 -0.57910156 0.026351929 -0.30029297

depthwise_conv2d_4/y:0 f4 [128]
00000000: 0060 2e3f 0060 ba3e 0080 4840 0000 083e
00000010: 0060 913f 0040 2f3f 0060 293e 0040 94bf
00000020: 0080 8cbf 00a0 0abf 0040 1ac0 0080 103e
00000030: 00c0 20c0 0000 693f 00a0 7640 00e0 c6bd
00000040: 0040 943f 00c0 0fc0 0040 8d3f 0060 1ebe
00000050: 0080 c4be 0060 8abe 0000 b439 00e0 973f
00000060: 0060 25bf 00e0 3cbf 0020 4a3f 00a0 3ebf
00000070: 0000 a5be 0000 5f40 0060 f03e 0080 d7bc
00000080: 00c0 e3bf 0080 b03e 0020 fbbf 00c0 99be
00000090: 00e0 c73e 00c0 b9be 00c0 623f 00c0 19bf
000000a0: 00e0 e03f 00a0 c13f 0020 d03e 00e0 d3be
000000b0: 00a0 9e3f 0040 a43d 00e0 3abe 00a0 28bf
000000c0: 0040 a33d 00e0 8640 0040 63bf 00e0 9f3e
000000d0: 0040 65bf 0060 133f 0080 13bf 00c0 f63e
000000e0: 00c0 2abf 0020 07be 0080 793f 0040 ecbe
000000f0: 00e0 b43d 00a0 b63f 0060 96bf 0000 23c0
00000100: 0080 8a3f 00c0 893f 0020 dd3f 00e0 84be
00000110: 0040 a1bf 00e0 babe 00e0 593f 00a0 573f
00000120: 0080 cf3d 00e0 7c3f 0040 b3bf 0040 05c0
00000130: 00a0 713f 00a0 3f3f 0000 8fbd 0060 bb3f
00000140: 0080 e6bf 00c0 c7bf 00e0 143f 0060 54bf
00000150: 00c0 6ac0 0020 27bf 00a0 23bf 0080 2540
00000160: 00c0 573f 0000 ebbf 0060 353e 0060 833e
00000170: 00e0 76be 0020 603e 00a0 29bf 0020 ab3f
00000180: 0060 a4be 0060 563f 0040 b6bf 0080 0e40
00000190: 00a0 4a3f 00a0 09c0 0020 4a3f 00a0 0940
000001a0: 00e0 22be 0040 53be 00a0 f3be 0000 bbbe
000001b0: 00a0 df3f 00a0 223e 0080 7dbf 00e0 82bd
000001c0: 0020 99bf 00a0 87be 00e0 423f 0000 f43e
000001d0: 0040 fe3f 0040 263f 0000 15bd 00c0 283f
000001e0: 0080 32bf 00e0 d23e 00c0 24bf 00a0 ee3d
000001f0: 0040 7b3f 0080 1e3f 00a0 b63f 0000 3c3f
0.68115234 0.36401367 3.1328125 0.1328125 1.1357422 0.6845703 0.16540527 -1.1582031
-1.0976562 -0.5415039 -2.4101562 0.14111328 -2.5117188 0.91015625 3.8535156 -0.09710693
1.1582031 -2.2460938 1.1035156 -0.15466309 -0.38378906 -0.27026367 0.00034332275 1.1865234
-0.6459961 -0.73779297 0.7895508 -0.7446289 -0.32226562 3.484375 0.46948242 -0.026306152
-1.7792969 0.34472656 -1.9619141 -0.30029297 0.39038086 -0.36279297 0.8857422 -0.60058594
1.7568359 1.5126953 0.40649414 -0.41381836 1.2392578 0.080200195 -0.18249512 -0.6586914
0.079711914 4.2148438 -0.8876953 0.31225586 -0.8955078 0.5756836 -0.5761719 0.4819336
-0.6669922 -0.13195801 0.9746094 -0.46142578 0.08831787 1.4267578 -1.1748047 -2.546875
1.0820312 1.0761719 1.7275391 -0.25952148 -1.2597656 -0.36499023 0.8510742 0.84228516
0.10131836 0.98779297 -1.4003906 -2.0820312 0.94384766 0.74853516 -0.06982422 1.4638672
-1.8007812 -1.5605469 0.58154297 -0.82958984 -3.6679688 -0.65283203 -0.63916016 2.5859375
0.84277344 -1.8359375 0.17712402 0.2565918 -0.24108887 0.21887207 -0.66259766 1.3369141
-0.32104492 0.83740234 -1.4238281 2.2265625 0.7915039 -2.1503906 0.7895508 2.1503906
-0.15905762 -0.20629883 -0.47583008 -0.36523438 1.7470703 0.15881348 -0.9902344 -0.06390381
-1.1962891 -0.26489258 0.76123047 0.4765625 1.9863281 0.64941406 -0.036376953 0.6591797
-0.6972656 0.41186523 -0.6435547 0.11651611 0.9814453 0.6191406 1.4267578 0.734375

depthwise_conv2d_3/y:0 f4 [96]
00000000: 0020 54be 0060 d8bf 00e0 02bf 0040 b03e
00000010: 0000 0e3e 0080 c8bf 00a0 473e 0000 53bf
00000020: 00e0 17be 0040 70bf 0060 84bf 0000 033f
00000030: 0020 89bf 0080 253f 0060 59bf 0060 c8be
00000040: 0060 5cbf 0040 e9be 0060 97bf 0060 50bf
00000050: 00e0 3ebf 0000 fcbd 00a0 4640 0060 203e
00000060: 0040 b3bf 0060 a53f 0040 6abd 0020 9e3f
00000070: 00c0 033e 00a0 11bf 0060 243e 00e0 72c0
00000080: 0020 213f 00a0 3540 0060 86be 0060 dabe
00000090: 00e0 b5be 0060 813f 00c0 923f 0060 c73e
000000a0: 0060 783d 00c0 4f3f 0060 b53f 00a0 573e
000000b0: 0000 fcbe 0060 d9bf 0060 05bf 0080 5d3e
000000c0: 0040 163f 0080 0a3f 0080 0ec0 0020 0740
000000d0: 0060 0fbf 00e0 03bf 0080 e5be 0080 123f
000000e0: 0040 a13f 0080 833f 0060 ba3f 0080 c4be
000000f0: 0000 cb3e 0000 4fbf 0080 883f 0060 f03e
00000100: 0020 2bbf 0020 7dc0 0000 c23e 0000 23bd
00000110: 0040 4b3f 0040 c93d 0060 6abf 00c0 fb3f
00000120: 00c0 eb3f 0080 e6be 00e0 80be 0000 3f3f
00000130: 0000 e53f 0040 13be 00e0 723f 0080 3040
00000140: 0060 2f40 0060 963f 0020 2c3f 0060 e63e
00000150: 0000 013e 00a0 90c0 0040 bfbe 00c0 773f
00000160: 0080 edbe 0040 8dbf 00e0 363e 0000 4bc0
00000170: 0080 cebe 00a0 5a3d 00c0 b1bd 00a0 023f
-0.20715332 -1.6904297 -0.51123047 0.34423828 0.13867188 -1.5664062 0.19494629 -0.82421875
-0.14831543 -0.93847656 -1.0341797 0.51171875 -1.0712891 0.6464844 -0.8491211 -0.39135742
-0.86083984 -0.4555664 -1.1826172 -0.81396484 -0.74560547 -0.123046875 3.1035156 0.15661621
-1.4003906 1.2919922 -0.05718994 1.2353516 0.12866211 -0.56884766 0.16052246 -3.7949219
0.62939453 2.8378906 -0.26245117 -0.42651367 -0.3552246 1.0107422 1.1464844 0.3894043
0.060638428 0.81152344 1.4169922 0.21057129 -0.4921875 -1.6982422 -0.5209961 0.2163086
0.58691406 0.5410156 -2.2265625 2.1113281 -0.5600586 -0.5151367 -0.4482422 0.5722656
1.2597656 1.0273438 1.4560547 -0.38378906 0.39648438 -0.80859375 1.0664062 0.46948242
-0.66845703 -3.9550781 0.37890625 -0.039794922 0.7939453 0.0982666 -0.91552734 1.9667969
1.8417969 -0.4501953 -0.25170898 0.74609375 1.7890625 -0.14379883 0.94873047 2.7578125
2.7402344 1.1748047 0.6723633 0.44995117 0.12597656 -4.5195312 -0.37353516 0.96777344
-0.4638672 -1.1035156 0.17858887 -3.171875 -0.4033203 0.053375244 -0.08679199 0.5102539

depthwise_conv2d_2/y:0 f4 [88]
00000000: 0060 0bbe 0020 61bf 0000 1d40 00c0 9b3f
00000010: 0000 5d3e 0040 97bf 0000 6040 0040 0441
00000020: 00a0 5c3e 00e0 183e 0040 303e 00e0 b4c0
00000030: 00c0 333d 0040 bbbe 00e0 13c0 00e0 b4be
00000040: 00c0 c03e 00c0 643d 0060 2b3f 00c0 f4be
00000050: 0060 8540 0020 efbf 0080 81c0 0060 6140
00000060: 00a0 18bf 0080 c23d 00c0 4340 00c0 4abd
00000070: 00c0 3840 0080 363f 0020 51c0 0060 a340
00000080: 00a0 a7be 00a0 ec3f 00e0 9cbd 00e0 1ec0
00000090: 0020 0abf 00c0 b53e 0080 39c0 0080 3e3d
000000a0: 00c0 1abf 00e0 a740 0000 f3be 0080 3240
000000b0: 00c0 c6bf 0080 65bd 0000 cdbe 0080 00c0
000000c0: 0020 7d40 00a0 64bf 00a0 81bf 00c0 0740
000000d0: 0060 d8bf 0000 d83f 00a0 5340 0020 8641
000000e0: 0060 4940 00c0 cac0 0000 cf3e 00a0 4fbf
000000f0: 00c0 5640 00c0 fa3f 0060 67c0 0060 493d
00000100: 0020 d0be 0080 5440 0080 a0bd 00e0 3e3f
00000110: 0000 11c0 00a0 88bf 00e0 0ac0 0000 ac3c
00000120: 00a0 82be 00a0 56c0 0000 f8bd 0060 25be
00000130: 0040 fbbd 00c0 7940 0080 3940 0060 253c
00000140: 0080 87bf 0060 c23f 0060 d2c0 00e0 4140
00000150: 0080 75be 0000 c5c0 00a0 1940 00a0 4cbc
-0.1361084 -0.87939453 2.453125 1.2167969 0.21582031 -1.1816406 3.5 8.265625
0.2154541 0.14929199 0.17211914 -5.6523438 0.043884277 -0.36572266 -2.3105469 -0.35327148
0.37646484 0.055847168 0.6694336 -0.47802734 4.1679688 -1.8681641 -4.046875 3.5214844
-0.5961914 0.0949707 3.0585938 -0.04949951 2.8867188 0.7128906 -3.2675781 5.1054688
-0.32739258 1.8486328 -0.07659912 -2.4824219 -0.5395508 0.35498047 -2.8984375 0.04650879
-0.6044922 5.2460938 -0.47460938 2.7890625 -1.5527344 -0.056030273 -0.40039062 -2.0078125
3.9550781 -0.8930664 -1.0126953 2.1210938 -1.6904297 1.6875 3.3066406 16.765625
3.1464844 -6.3359375 0.40429688 -0.81103516 3.3554688 1.9589844 -3.6152344 0.04916382
-0.40649414 3.3203125 -0.07836914 0.74560547 -2.265625 -1.0673828 -2.1699219 0.020996094
-0.25512695 -3.3535156 -0.12109375 -0.16149902 -0.122680664 3.9023438 2.8984375 0.010093689
-1.0585938 1.5185547 -6.5742188 3.0292969 -0.2397461 -6.15625 2.4003906 -0.012489319

depthwise_conv2d_10/y:0 f4 [16]
00000000: 0060 3ac1 00a0 1dc0 0060 30c0 00c0 42c0
00000010: 00c0 01c0 0080 4bbf 00e0 a93f 00c0 dec1
00000020: 0020 453c 00c0 7c3c 0040 6bbf 0040 babe
00000030: 0060 4bc0 00e0 ae3f 0040 7ac1 0020 bd3f
-11.6484375 -2.4628906 -2.7558594 -3.0429688 -2.0273438 -0.7949219 1.3271484 -27.84375
0.012031555 0.015426636 -0.9189453 -0.36376953 -3.1777344 1.3662109 -15.640625 1.4775391

depthwise_conv2d_1/y:0 f4 [72]
00000000: 0020 2fbe 0080 9ebe 0060 8f3d 0040 4940
00000010: 00c0 a53e 0060 5840 00e0 abbd 00c0 7240
00000020: 0060 2d3e 0080 e13e 00e0 fdbe 0060 40bd
00000030: 0060 3940 00e0 8c40 00e0 853e 0060 8c3d
00000040: 0060 8f3b 00e0 26bf 0020 223f 00a0 54be
00000050: 0040 f3bd 0020 d33d 0060 ef40 0040 a940
00000060: 0000 e33c 00c0 1bbf 0020 6240 00a0 5240
00000070: 0000 8a3e 0040 f0bc 0060 2bbf 00c0 4840
00000080: 0020 433c 0000 95bb 0080 cebd 00a0 3c40
00000090: 0020 e1be 0040 46bd 0080 b13c 0060 a340
000000a0: 0060 cf3f 00a0 edbe 00a0 933d 0020 c8bd
000000b0: 00a0 7f3f 0040 743e 0060 dd3e 0040 5cbd
000000c0: 00c0 2fbf 0060 66be 0080 b840 00c0 c840
000000d0: 0060 3540 0000 89bd 0000 a940 0020 7640
000000e0: 00e0 9cbf 0000 4d3e 0080 3a3e 0060 ba3e
000000f0: 0040 443e 00c0 cf40 0040 a1bd 00a0 0940
00000100: 0000 09bf 0020 21be 0020 65be 0020 2041
00000110: 0000 4540 00e0 4a3e 0040 213d 0000 b140
-0.17102051 -0.3095703 0.070007324 3.1445312 0.32373047 3.3808594 -0.08392334 3.7929688
0.16931152 0.4404297 -0.4958496 -0.046966553 2.8964844 4.4023438 0.2614746 0.06854248
0.0043754578 -0.65185547 0.6333008 -0.2076416 -0.118774414 0.10308838 7.4804688 5.2890625
0.027709961 -0.60839844 3.5332031 3.2910156 0.26953125 -0.029327393 -0.6694336 3.1367188
0.011909485 -0.004547119 -0.10083008 2.9472656 -0.43969727 -0.04840088 0.02166748 5.1054688
1.6201172 -0.46411133 0.07208252 -0.097717285 0.99853516 0.23852539 0.43237305 -0.053771973
-0.68652344 -0.22497559 5.765625 6.2734375 2.8339844 -0.06689453 5.28125 3.8457031
-1.2255859 0.20019531 0.1821289 0.36401367 0.19165039 6.4921875 -0.07873535 2.1503906
-0.53515625 -0.15734863 -0.22375488 10.0078125 3.078125 0.19812012 0.039367676 5.53125

depthwise_conv2d/y:0 f4 [16]
00000000: 00a0 b23f 0020 153d 0080 fa3c 0040 fcbc
00000010: 00e0 cd3e 00a0 e43f 00a0 92bc 0020 82be
00000020: 0040 7f3f 00a0 4040 0000 553d 00a0 e6bd
00000030: 00e0 c33e 0000 843e 0080 773e 0060 8c3f
1.3955078 0.03640747 0.030578613 -0.030792236 0.4020996 1.7861328 -0.01789856 -0.2541504
0.9970703 3.0097656 0.052001953 -0.11260986 0.38256836 0.2578125 0.24169922 1.0966797

conv2d_9_1/y:0 f4 [96]
00000000: 0060 843e 0060 dd3f 0040 ac3e 0080 3f3f
00000010: 0040 69bf 00a0 bd3f 0040 7d3f 00a0 1d3f
00000020: 00c0 933d 0060 64bf 0060 7a3f 00a0 afbf
00000030: 0040 f0be 0080 143f 0020 b83f 00e0 d7be
00000040: 00c0 a23d 00e0 0abf 00a0 1340 00c0 abbe
00000050: 0000 643f 00c0 7fbf 00e0 f43f 0000 af3f
00000060: 0060 d43f 0060 2fbe 0080 2d3f 0020 1c3e
00000070: 0040 a1bf 00e0 853d 0060 afbf 0080 33be
00000080: 0020 ba3f 00a0 1e40 00c0 4ebf 0080 0540
00000090: 0040 cf3e 00e0 df3e 0060 d8bd 00c0 56be
000000a0: 00c0 e9be 0020 f83f 0040 4d3f 0080 d13c
000000b0: 00e0 ce40 00c0 6ebf 0020 00bf 00a0 e43f
000000c0: 0040 1a40 0000 0cc0 0040 1440 0080 643f
000000d0: 00c0 953f 00a0 b63f 00a0 433d 0000 c83f
000000e0: 00e0 51bf 00e0 123f 0060 2540 0040 06be
000000f0: 0000 06be 0080 403d 00e0 573e 0040 ba3f
00000100: 0020 56bf 0080 a43f 0060 9bbe 0020 f4be
00000110: 0040 363e 0060 c9be 00e0 463f 0000 e83f
00000120: 0040 973f 00c0 043e 00a0 d3bc 00e0 19bf
00000130: 00e0 233f 0060 3ac0 0020 acbf 0080 0240
00000140: 0020 f53f 00e0 5240 00e0 e1be 0040 95bf
00000150: 00a0 c9bf 0020 3540 0060 913f 0000 863f
00000160: 0080 8d3f 00c0 40be 0040 723e 0080 c1bf
00000170: 00c0 c73e 0000 d93e 0060 093f 0080 953f
0.25854492 1.7294922 0.33642578 0.7480469 -0.9111328 1.4814453 0.9892578 0.61572266
0.072143555 -0.89208984 0.97802734 -1.3720703 -0.46923828 0.5800781 1.4384766 -0.42163086
0.07946777 -0.54248047 2.3066406 -0.33544922 0.890625 -0.99902344 1.9130859 1.3671875
1.6591797 -0.17126465 0.6777344 0.15246582 -1.2597656 0.06536865 -1.3701172 -0.17529297
1.4541016 2.4785156 -0.8076172 2.0859375 0.40478516 0.43725586 -0.105651855 -0.2097168
-0.45654297 1.9384766 0.8017578 0.02557373 6.4648438 -0.9326172 -0.5004883 1.7861328
2.4101562 -2.1875 2.3164062 0.8925781 1.1699219 1.4267578 0.04776001 1.5625
-0.8198242 0.57373047 2.5839844 -0.13110352 -0.13085938 0.04699707 0.21081543 1.4550781
-0.8364258 1.2851562 -0.3034668 -0.47680664 0.17797852 -0.39331055 0.77685547 1.8125
1.1816406 0.12963867 -0.02583313 -0.6010742 0.6401367 -2.9121094 -1.3447266 2.0390625
1.9150391 3.2949219 -0.4411621 -1.1660156 -1.5751953 2.8300781 1.1357422 1.046875
1.1054688 -0.18823242 0.23657227 -1.5117188 0.39013672 0.42382812 0.5366211 1.1679688

conv2d_8_1/y:0 f4 [24]
00000000: 0000 8ac0 0060 a140 0000 4840 0020 dc3f
00000010: 0080 933f 0020 03c0 00e0 72c0 0040 7c40
00000020: 0060 54c0 0040 64be 00e0 e83e 00a0 cab9
00000030: 00e0 323e 0080 1440 00a0 4340 0000 59be
00000040: 0020 43c0 0000 87bf 0020 bebe 00a0 af3f
00000050: 0040 ed40 00c0 6940 0080 3640 0000 8c3f
-4.3125 5.0429688 3.125 1.7197266 1.1523438 -2.0488281 -3.7949219 3.9414062
-3.3183594 -0.22290039 0.45483398 -0.00038647652 0.17468262 2.3203125 3.0566406 -0.21191406
-3.0488281 -1.0546875 -0.3713379 1.3720703 7.4140625 3.6523438 2.8515625 1.09375

conv2d_7_1/y:0 f4 [88]
00000000: 00c0 fabe 0040 a23f 00a0 7440 0000 f03f
00000010: 0020 d13f 00c0 873e 00e0 4b3f 0000 4b3f
00000020: 0060 3740 00e0 0e40 0060 1840 0060 3e40
00000030: 0000 ea3f 0060 ef3f 0080 0840 00a0 0e40
00000040: 0000 753f 0060 1940 00c0 0040 00e0 633f
00000050: 0080 d83f 00c0 13bf 00a0 1940 0000 1540
00000060: 00e0 0140 0020 023f 00a0 7abf 00c0 0740
00000070: 00e0 02be 0040 cd3f 0040 fa3f 0040 98bf
00000080: 00c0 0840 00c0 ddbe 00e0 c73f 00a0 5fbf
00000090: 00a0 c43f 0000 b03c 00c0 0640 00e0 b23f
000000a0: 0060 873f 0060 0840 0020 a540 0040 e73f
000000b0: 0000 a13c 0080 693f 00e0 1440 00a0 3b40
000000c0: 0020 1e40 00a0 0640 00e0 a83f 0020 823f
000000d0: 00c0 80bf 0000 b13f 0060 2840 00e0 9240
000000e0: 0040 93bf 0080 0640 00e0 3e40 0040 25bf
000000f0: 00c0 af3e 0000 b63f 00c0 4040 0040 ce3f
00000100: 00c0 ecbd 0060 733f 0060 a73f 0020 e43f
00000110: 00c0 95bf 00e0 e53d 0060 d33f 00a0 ec3f
00000120: 0080 d73f 00e0 83bf 00e0 013f 00e0 a33f
00000130: 00c0 0b40 00c0 2a40 0040 2340 0060 0940
00000140: 00a0 b73f 00e0 4740 0020 dc3f 0060 6b3f
00000150: 0080 fc3f 00e0 2b40 0080 dc3f 00c0 12bf
-0.4897461 1.2675781 3.8222656 1.875 1.6337891 0.26513672 0.7963867 0.79296875
2.8652344 2.2324219 2.3808594 2.9746094 1.828125 1.8701172 2.1328125 2.2285156
0.95703125 2.3964844 2.0117188 0.8901367 1.6914062 -0.57714844 2.4003906 2.328125
2.0292969 0.5083008 -0.9790039 2.1210938 -0.12780762 1.6035156 1.9550781 -1.1894531
2.1367188 -0.43310547 1.5615234 -0.87353516 1.5361328 0.021484375 2.1054688 1.3974609
1.0576172 2.1308594 5.1601562 1.8066406 0.01965332 0.9121094 2.3261719 2.9316406
2.4707031 2.1035156 1.3193359 1.0166016 -1.0058594 1.3828125 2.6308594 4.5898438
-1.1503906 2.1015625 2.9824219 -0.6455078 0.34326172 1.421875 3.0117188 1.6113281
-0.115600586 0.9506836 1.3076172 1.7822266 -1.1699219 0.11224365 1.6513672 1.8486328
1.6835938 -1.0302734 0.5073242 1.2802734 2.1835938 2.6679688 2.5507812 2.1464844
1.4345703 3.1230469 1.7197266 0.9194336 1.9726562 2.6855469 1.7226562 -0.5732422

conv2d_6_1/y:0 f4 [24]
00000000: 00e0 3040 0040 423f 0080 8040 0000 79bf
00000010: 00c0 1740 0040 8c40 0000 34bf 0060 b040
00000020: 00a0 93c0 00a0 4d40 0020 8c40 0000 a43f
00000030: 00e0 7440 00a0 53c0 00e0 d3bd 00c0 f93f
00000040: 0000 373f 00a0 9dc0 0020 3ac0 00a0 c9be
00000050: 0040 3ec0 0000 89be 00e0 4340 00a0 bebf
2.7636719 0.75878906 4.015625 -0.97265625 2.3710938 4.3828125 -0.703125 5.5117188
-4.6132812 3.2128906 4.3789062 1.28125 3.8261719 -3.3066406 -0.10345459 1.9511719
0.71484375 -4.9257812 -2.9082031 -0.39379883 -2.9726562 -0.26757812 3.0605469 -1.4892578

conv2d_5_1/y:0 f4 [72]
00000000: 0060 7440 0060 7140 00e0 c840 0020 e3c0
00000010: 0020 80bf 00e0 d940 00e0 3240 00c0 873f
00000020: 0000 f140 00a0 2040 0020 7740 0020 fd3f
00000030: 00e0 bc40 0080 f141 0060 f63f 00e0 7c40
00000040: 00a0 d8c0 00e0 6840 00a0 5340 0000 3840
00000050: 0060 1940 0040 4740 0020 00c1 0040 a83f
00000060: 00e0 4840 0060 17be 0080 83be 0000 bb40
00000070: 0000 e1bc 0020 0340 0020 2a40 0040 fd3f
00000080: 00e0 5540 0020 1740 0040 b5be 00c0 8dc1
00000090: 0040 6540 00a0 0440 00a0 3240 0020 2e41
000000a0: 0020 b040 0000 0a40 0000 1040 0060 4840
000000b0: 0080 513f 0020 1040 00c0 e7bf 0000 1c40
000000c0: 0000 0540 0080 4640 0000 3c40 0000 1641
000000d0: 00c0 e2bf 0080 af40 00e0 943f 0020 b6c0
000000e0: 0020 9fbf 0060 3b40 0060 7c40 0080 bd40
000000f0: 0040 ae40 00e0 35be 00e0 2e40 0040 85c1
00000100: 0020 2a40 0020 e2be 00a0 e53f 0020 96be
00000110: 00c0 0c40 0080 1dc1 0040 0240 0040 06c1
3.8183594 3.7714844 6.2773438 -7.0976562 -1.0009766 6.8085938 2.7949219 1.0605469
7.53125 2.5097656 3.8613281 1.9775391 5.9023438 30.1875 1.9248047 3.9511719
-6.7695312 3.6386719 3.3066406 2.875 2.3964844 3.1132812 -8.0078125 1.3144531
3.1386719 -0.14782715 -0.25683594 5.84375 -0.02746582 2.0488281 2.6582031 1.9785156
3.3417969 2.3613281 -0.3540039 -17.71875 3.5820312 2.0722656 2.7910156 10.8828125
5.5039062 2.15625 2.25 3.1308594 0.8183594 2.2519531 -1.8105469 2.4375
2.078125 3.1015625 2.9375 9.375 -1.7714844 5.484375 1.1630859 -5.6914062
-1.2431641 2.9277344 3.9433594 5.921875 5.4453125 -0.1776123 2.7324219 -16.65625
2.6582031 -0.4416504 1.7939453 -0.2932129 2.1992188 -9.84375 2.0351562 -8.390625

conv2d_4_1/y:0 f4 [16]
00000000: 0000 1a40 0020 6f40 00c0 c1bf 0040 09c1
00000010: 00a0 62c0 0060 663f 00c0 1bc0 00e0 e53f
00000020: 00e0 8ec0 0040 27c1 00e0 75c0 0060 03c1
00000030: 0080 fcc0 0000 b03f 00a0 ddbf 0000 7d3f
2.40625 3.7363281 -1.5136719 -8.578125 -3.5410156 0.89990234 -2.4335938 1.7958984
-4.4648438 -10.453125 -3.8417969 -8.2109375 -7.890625 1.375 -1.7314453 0.98828125

conv2d_42_1/y:0 f4 [16]
00000000: 0020 923d 00a0 0abf 0060 b3bf 00a0 b2bf
00000010: 0040 aebd 00a0 84be 00a0 3ec0 0000 65bd
00000020: 0060 ff3e 0080 67c0 0040 923e 00a0 933e
00000030: 0000 89bf 00e0 e7bf 00c0 90bb 0080 84bf
0.0713501 -0.5415039 -1.4013672 -1.3955078 -0.08508301 -0.2590332 -2.9785156 -0.055908203
0.4987793 -3.6171875 0.28564453 0.28833008 -1.0703125 -1.8115234 -0.0044174194 -1.0351562

conv2d_41_1/y:0 f4 [16]
00000000: 0020 bcbf 00e0 02c0 0000 383f 00a0 343f
00000010: 0040 5bbf 0060 20c0 0060 a4bf 0080 5cbf
00000020: 0080 22c0 00e0 8ebf 00c0 b1bf 0020 6ac0
00000030: 0020 a4bf 00e0 93bf 00c0 f7be 0040 1fc0
-1.4697266 -2.0449219 0.71875 0.7055664 -0.8564453 -2.5058594 -1.2841797 -0.8613281
-2.5390625 -1.1162109 -1.3886719 -3.6582031 -1.2822266 -1.1552734 -0.48388672 -2.4882812

conv2d_40_1/y:0 f4 [16]
00000000: 0000 4dbd 0080 09c0 00e0 38c0 00e0 8d3f
00000010: 0080 23bf 00c0 47c0 0060 a4bf 0020 d53e
00000020: 00e0 423f 00a0 813e 0020 133f 0080 d7bf
00000030: 00a0 90c0 00a0 593e 0040 a1bf 0080 393f
-0.050048828 -2.1484375 -2.8886719 1.1083984 -0.6386719 -3.1210938 -1.2841797 0.41625977
0.76123047 0.25317383 0.57470703 -1.6835938 -4.5195312 0.21252441 -1.2597656 0.7246094

conv2d_3_1/y:0 f4 [16]
00000000: 00e0 b2bf 00c0 48bf 0080 603f 00a0 dfbe
00000010: 0020 b53f 00a0 0ec0 00e0 243f 0040 89bf
00000020: 0040 93bf 0000 28bf 0000 3a3e 0040 2abe
00000030: 00c0 2bbd 00c0 10bf 0080 dbbe 0020 7cbf
-1.3974609 -0.7841797 0.8769531 -0.43676758 1.4150391 -2.2285156 0.64404297 -1.0722656
-1.1503906 -0.65625 0.18164062 -0.16625977 -0.041931152 -0.5654297 -0.42871094 -0.9848633

conv2d_39_1/y:0 f4 [16]
00000000: 0020 48c0 00c0 88bc 0000 e6be 0020 10bf
00000010: 0000 65c0 00c0 843e 00a0 803f 0080 1cc0
00000020: 0080 67bf 00e0 11c0 0080 a0bf 0040 5f3d
00000030: 0060 c4bf 0040 9bbf 00a0 dd3f 00a0 8540
-3.1269531 -0.016693115 -0.44921875 -0.5629883 -3.578125 0.25927734 1.0048828 -2.4453125
-0.9042969 -2.2792969 -1.2539062 0.054504395 -1.5341797 -1.2128906 1.7314453 4.1757812

conv2d_38_1/y:0 f4 [16]
00000000: 00c0 b53e 0000 2d3f 00e0 f03e 0040 06be
00000010: 0040 0fbf 00c0 933f 0000 433f 0020 babe
00000020: 00e0 293f 0020 d93e 0060 99be 0080 4e3f
00000030: 0080 a63e 00e0 87bd 0020 463e 0080 abbf
0.35498047 0.67578125 0.47045898 -0.13110352 -0.5595703 1.1542969 0.76171875 -0.3635254
0.6635742 0.42407227 -0.29956055 0.8066406 0.3251953 -0.066345215 0.19348145 -1.3398438

conv2d_37_1/y:0 f4 [16]
00000000: 0060 b5bd 0020 cf40 00c0 cfbe 00c0 d7c0
00000010: 0020 c240 0060 613f 0020 acbf 0000 10be
00000020: 0020 0a40 00a0 42bf 00c0 0940 0080 13c0
00000030: 00e0 4c40 0060 d5c0 00c0 3c3f 00c0 d5c0
-0.08856201 6.4726562 -0.40576172 -6.7421875 6.0664062 0.8803711 -1.3447266 -0.140625
2.1582031 -0.7602539 2.1523438 -2.3046875 3.2011719 -6.6679688 0.7373047 -6.6796875

conv2d_36_1/y:0 f4 [16]
00000000: 00e0 bfbf 0060 92bf 0020 dabf 00a0 0c3f
00000010: 0040 62c0 00e0 143d 00e0 ea3e 0080 5cc0
00000020: 0060 b9bf 0020 6dbf 0000 01bf 0000 29c0
00000030: 0020 333e 0080 0ec0 0020 15c0 0000 1cc0
-1.4990234 -1.1435547 -1.7041016 0.5493164 -3.5351562 0.036346436 0.45874023 -3.4453125
-1.4482422 -0.92626953 -0.50390625 -2.640625 0.17492676 -2.2265625 -2.3300781 -2.4375

conv2d_35_1/y:0 f4 [16]
00000000: 00a0 c3be 00e0 ffbe 0020 9dbe 0040 44c0
00000010: 0080 1cc0 0000 343f 0040 50bd 0000 843e
00000020: 0060 24c0 0060 c440 0040 34be 00c0 eebf
00000030: 0020 f2bf 00a0 35c0 0060 d3bf 00e0 483c
-0.38208008 -0.49975586 -0.30688477 -3.0664062 -2.4453125 0.703125 -0.050842285 0.2578125
-2.5683594 6.1367188 -0.17602539 -1.8652344 -1.8916016 -2.8378906 -1.6513672 0.012260437

conv2d_34_1/y:0 f4 [24]
00000000: 00c0 413e 0080 eb3e 0080 a03f 0080 0f3f
00000010: 00e0 1e3f 00c0 643f 00c0 1d3d 00e0 a03e
00000020: 0060 83be 00c0 95bd 0020 163e 0060 a33f
00000030: 0040 523e 0000 563f 0060 7c3e 0020 7f3e
00000040: 00e0 233f 00c0 423e 00c0 80be 0080 8f39
00000050: 0000 d33d 0040 593f 0040 2740 0060 363f
0.18920898 0.45996094 1.2539062 0.5605469 0.62060547 0.8935547 0.038513184 0.31420898
-0.2565918 -0.07312012 0.14660645 1.2763672 0.20532227 0.8359375 0.24645996 0.24914551
0.6401367 0.19018555 -0.25146484 0.00027370453 0.103027344 0.8486328 2.6132812 0.71240234

conv2d_33_1/y:0 f4 [24]
00000000: 0040 813d 0080 e040 00c0 74bf 0060 ff3f
00000010: 00e0 d83f 00c0 2fbf 0040 1ec0 0000 c93f
00000020: 0060 babf 00c0 1d3f 0080 c83f 0000 d23e
00000030: 00a0 04c0 00a0 8e3e 0040 83c0 00a0 1140
00000040: 0080 fdbf 0060 843f 00e0 1f40 0080 dc3f
00000050: 0020 703f 0000 1dbf 0080 cebf 00e0 3dc0
0.06311035 7.015625 -0.9560547 1.9951172 1.6943359 -0.68652344 -2.4726562 1.5703125
-1.4560547 0.61621094 1.5664062 0.41015625 -2.0722656 0.27856445 -4.1015625 2.2753906
-1.9804688 1.0341797 2.4980469 1.7226562 0.9379883 -0.61328125 -1.6132812 -2.9667969

conv2d_32_1/y:0 f4 [24]
00000000: 0000 dfbf 00c0 36c0 0000 08c0 0080 49c0
00000010: 00e0 cfbf 0080 313e 0000 1bc0 0080 88bf
00000020: 00e0 403d 00e0 453f 0060 dabf 0020 cabe
00000030: 00e0 22bf 0080 d9bf 00c0 dfbf 00a0 59bd
00000040: 0000 dbbe 0040 98bf 0020 cebf 0000 07c0
00000050: 00a0 c7bf 0040 6d3f 0060 c83d 00c0 93bf
-1.7421875 -2.8554688 -2.125 -3.1484375 -1.6240234 0.17333984 -2.421875 -1.0664062
0.047088623 0.7729492 -1.7060547 -0.3947754 -0.63623047 -1.6992188 -1.7480469 -0.053131104
-0.42773438 -1.1894531 -1.6103516 -2.109375 -1.5595703 0.9267578 0.097839355 -1.1542969

conv2d_31_1/y:0 f4 [24]
00000000: 0080 c03f 00c0 ea3e 00c0 6740 00a0 45bf
00000010: 00a0 55bf 0040 ac3f 0040 1d3e 00e0 79be
00000020: 0060 253f 0020 e5bd 0080 98be 0020 8ebf
00000030: 0020 0cc0 0040 b63f 00c0 a9bf 0020 b53f
00000040: 00c0 d53e 00c0 c2be 0000 f7be 0020 15bf
00000050: 0060 0040 0060 ccbf 00a0 94bf 00c0 8bbf
1.5039062 0.4584961 3.6210938 -0.77197266 -0.83447266 1.3457031 0.15356445 -0.24401855
0.6459961 -0.11187744 -0.29785156 -1.1103516 -2.1894531 1.4238281 -1.3261719 1.4150391
0.41748047 -0.3803711 -0.48242188 -0.58251953 2.0058594 -1.5966797 -1.1611328 -1.0917969

conv2d_30_1/y:0 f4 [128]
00000000: 0020 cdbe 00e0 8abe 0000 a0bf 0060 19bf
00000010: 00e0 44bf 0040 38bf 0080 d53e 0000 bd3e
00000020: 00c0 9bbf 0000 b4be 00c0 823f 0020 e8bd
00000030: 0040 a8bc 0080 69bf 0000 93bf 00a0 8cbf
00000040: 00e0 4abf 0040 41bf 0040 133f 0000 6ebf
00000050: 00e0 ee3f 00c0 203e 0080 44bf 0020 dfbe
00000060: 0060 bc3f 0040 01c0 0040 f5be 0020 8b3e
00000070: 0020 8dbf 0080 0fbf 0020 12c0 0060 12c0
00000080: 00c0 63bf 0060 043f 0040 82be 0000 a13f
00000090: 00e0 7a3f 00c0 54be 0080 973e 0040 edbf
000000a0: 0020 a0be 00e0 60bf 00a0 1f40 00c0 023f
000000b0: 00a0 b3be 00a0 113f 00c0 873e 0080 05be
000000c0: 0000 903e 0020 6dbe 00c0 49bf 0040 08bf
000000d0: 0020 f73f 0060 e73f 00e0 8b3e 0020 efbd
000000e0: 00e0 03bf 0040 d6bf 0020 b5bf 00e0 89bf
000000f0: 0020 c33d 00e0 4b3e 00c0 b4bf 0040 653d
00000100: 00a0 953f 0020 0cbf 00e0 b43d 0060 1140
00000110: 00a0 f03e 0000 e5be 0080 06bf 0000 8ebf
00000120: 00c0 94bf 0040 fa3d 0000 4e3f 0060 43bf
00000130: 0080 3cbe 0080 a5bf 00e0 05bf 00e0 02be
00000140: 0060 ecbe 0020 9dbe 00a0 b1bf 0080 ca3e
00000150: 0060 1abf 00a0 6fba 00a0 f5bd 00c0 cd3d
00000160: 0040 153e 00a0 bd3f 00c0 253f 00e0 64be
00000170: 00a0 083e 00c0 42bf 0000 e9bf 00a0 bebf
00000180: 0080 113e 00e0 11bf 0020 813f 0060 a0be
00000190: 0080 9fbf 00c0 9a3f 0080 363d 0040 733f
000001a0: 0040 ab3d 0020 bbbf 0080 47bf 00a0 2b3f
000001b0: 0060 4d40 00c0 b4be 0080 1abf 0000 f63e
000001c0: 00a0 9f3e 00a0 50bf 0060 373e 0020 0e3d
000001d0: 0060 57be 0080 82be 00c0 18bf 0040 443f
000001e0: 0080 db3d 0020 a4be 0000 5bbe 00a0 243e
000001f0: 0040 46bf 0020 87bf 00c0 e3be 0020 073f
-0.40063477 -0.27124023 -1.25 -0.5991211 -0.76904297 -0.71972656 0.4169922 0.36914062
-1.2167969 -0.3515625 1.0214844 -0.113342285 -0.02053833 -0.9121094 -1.1484375 -1.0986328
-0.79248047 -0.7548828 0.5751953 -0.9296875 1.8662109 0.15698242 -0.7675781 -0.43579102
1.4716797 -2.0195312 -0.4790039 0.27172852 -1.1025391 -0.5605469 -2.2832031 -2.2871094
-0.88964844 0.51708984 -0.25439453 1.2578125 0.97998047 -0.20776367 0.29589844 -1.8535156
-0.31274414 -0.87841797 2.4941406 0.5107422 -0.35083008 0.56884766 0.26513672 -0.1303711
0.28125 -0.23156738 -0.78808594 -0.53222656 1.9306641 1.8076172 0.27319336 -0.116760254
-0.5151367 -1.6738281 -1.4150391 -1.0771484 0.09527588 0.19909668 -1.4121094 0.05596924
1.1689453 -0.5473633 0.08831787 2.2714844 0.4699707 -0.44726562 -0.5253906 -1.109375
-1.1621094 0.12219238 0.8046875 -0.7631836 -0.18408203 -1.2929688 -0.5229492 -0.12780762
-0.46166992 -0.30688477 -1.3876953 0.3955078 -0.60302734 -0.00091409683 -0.11993408 0.10046387
0.14575195 1.4814453 0.64746094 -0.22351074 0.13342285 -0.7607422 -1.8203125 -1.4892578
0.14208984 -0.5698242 1.0087891 -0.31323242 -1.2460938 1.2089844 0.044555664 0.9501953
0.083618164 -1.4619141 -0.7792969 0.67041016 3.2089844 -0.35302734 -0.6035156 0.48046875
0.31176758 -0.8149414 0.17907715 0.034698486 -0.21032715 -0.2548828 -0.5966797 0.76660156
0.107177734 -0.32055664 -0.21386719 0.1607666 -0.77441406 -1.0556641 -0.44482422 0.52783203

conv2d_2_1/y:0 f4 [8]
00000000: 00c0 a6be 0000 d1bd 0040 193e 0040 c03e
00000010: 00a0 543f 0000 dd3e 00e0 ed3e 0080 2ebe
-0.3256836 -0.10205078 0.1496582 0.37548828 0.8305664 0.43164062 0.4645996 -0.17041016

conv2d_29_1/y:0 f4 [128]
00000000: 0040 13c0 00c0 d7bf 0000 9ebf 0080 8abc
00000010: 0020 73bf 00a0 5abf 00a0 8abf 0060 e1bf
00000020: 00a0 aabf 0060 a2bf 0040 b83e 0060 c0bf
00000030: 00a0 0ac0 0020 d9bf 00e0 21bf 0080 d5be
00000040: 0040 7bbf 00e0 c7bf 0080 bebf 00a0 76be
00000050: 0080 ccbf 00e0 83bf 0000 5bbf 00a0 d6bf
00000060: 0000 89bf 0020 e6be 0060 b2bf 0040 05bf
00000070: 0020 943d 00a0 023f 00e0 dabf 0020 43bf
00000080: 0060 e1be 0040 b6bf 0060 cd3e 00e0 3f3f
00000090: 00e0 cdbf 0000 0fc0 0040 21bf 00c0 57bf
000000a0: 00e0 6fbe 0020 26bd 0000 ddbf 0020 08bf
000000b0: 0040 55bf 0060 15bf 00a0 07bf 0080 3c3f
000000c0: 0000 c2bf 00c0 febe 00a0 19be 0000 51bf
000000d0: 0080 e0bf 0060 95bf 0020 1fc0 00c0 04c0
000000e0: 0060 3b3f 0060 a3bf 0060 373f 00e0 8abf
000000f0: 0080 11c0 00c0 65bf 0000 cebe 00a0 89bf
00000100: 00a0 69bf 00c0 a63e 0040 0bbf 00c0 87bf
00000110: 0080 a5bf 0040 5abf 0080 4cbf 0020 a8bf
00000120: 00e0 efbf 00c0 75be 0000 2abe 00e0 ebbf
00000130: 0040 87be 0000 c33d 0080 82be 00a0 19c0
00000140: 00c0 9ebf 00c0 49bf 0000 00bf 00c0 79bf
00000150: 00e0 46bf 0040 1bc0 0060 4ec0 00e0 94bf
00000160: 00a0 2bbf 00c0 2bc0 00e0 e6bf 0000 89bf
00000170: 0020 c1bf 00c0 34bf 0040 94bf 00e0 9fbf
00000180: 00e0 b5bf 00a0 3fc0 00a0 c0bf 0000 e7be
00000190: 0040 dbbf 0020 67bf 0000 84bf 0040 a6bf
000001a0: 00e0 f2bf 00a0 1abf 0000 96bf 0060 8cbf
000001b0: 00c0 2ac0 00e0 ccbe 0060 f5be 00a0 81bf
000001c0: 00a0 cabe 0060 acbf 0040 be3e 0000 bdbf
000001d0: 00c0 e23e 0000 adbe 00e0 e3bf 0040 a7bf
000001e0: 00a0 43bf 0040 3abf 0060 cebf 00c0 a0bf
000001f0: 00e0 36bf 00c0 81bf 00c0 babe 0020 f5bf
-2.3007812 -1.6855469 -1.234375 -0.016906738 -0.94970703 -0.8540039 -1.0830078 -1.7607422
-1.3330078 -1.2685547 0.35986328 -1.5029297 -2.1660156 -1.6962891 -0.6323242 -0.4169922
-0.9814453 -1.5615234 -1.4882812 -0.24084473 -1.5976562 -1.0302734 -0.85546875 -1.6767578
-1.0703125 -0.4494629 -1.3935547 -0.5205078 0.07232666 0.5102539 -1.7099609 -0.76220703
-0.44018555 -1.4238281 0.40112305 0.7495117 -1.6083984 -2.234375 -0.6298828 -0.84277344
-0.23425293 -0.04055786 -1.7265625 -0.5317383 -0.8330078 -0.5834961 -0.52978516 0.7363281
-1.515625 -0.4975586 -0.15002441 -0.81640625 -1.7539062 -1.1669922 -2.4863281 -2.0742188
0.7319336 -1.2763672 0.7163086 -1.0849609 -2.2734375 -0.89746094 -0.40234375 -1.0751953
-0.91259766 0.3256836 -0.5439453 -1.0605469 -1.2929688 -0.85253906 -0.7988281 -1.3134766
-1.8740234 -0.23999023 -0.16601562 -1.8427734 -0.26416016 0.095214844 -0.2548828 -2.4003906
-1.2402344 -0.78808594 -0.5 -0.97558594 -0.77685547 -2.4257812 -3.2246094 -1.1630859
-0.67041016 -2.6835938 -1.8037109 -1.0703125 -1.5087891 -0.7060547 -1.1582031 -1.2490234
-1.4208984 -2.9941406 -1.5048828 -0.45117188 -1.7128906 -0.90283203 -1.03125 -1.2988281
-1.8974609 -0.6040039 -1.171875 -1.0966797 -2.6679688 -0.40014648 -0.47924805 -1.0126953
-0.39575195 -1.3466797 0.37158203 -1.4765625 0.4428711 -0.33789062 -1.7802734 -1.3066406
-0.76416016 -0.72753906 -1.6123047 -1.2558594 -0.71435547 -1.0136719 -0.3647461 -1.9150391

conv2d_28_1/y:0 f4 [32]
00000000: 0020 203f 00e0 a73e 0040 eebe 0020 283f
00000010: 00e0 8fbf 0000 e13e 0080 02bf 0040 83bf
00000020: 00a0 0140 0020 58bf 0060 273e 00c0 93bf
00000030: 0000 e23f 00a0 dabe 0020 fcbe 0080 c3bf
00000040: 0060 7d3f 0000 bdbf 0060 00c0 0020 d7bf
00000050: 0020 a0be 0000 97bf 0040 34bf 00e0 72bd
00000060: 0040 2f3f 00c0 e2bf 00e0 7c3e 00a0 e6be
00000070: 00a0 95be 00c0 463f 0080 c23d 00a0 c93f
0.6254883 0.32788086 -0.46533203 0.6567383 -1.1240234 0.43945312 -0.5097656 -1.0253906
2.0253906 -0.8442383 0.16345215 -1.1542969 1.765625 -0.42700195 -0.49243164 -1.5273438
0.9897461 -1.4765625 -2.0058594 -1.6806641 -0.31274414 -1.1796875 -0.70410156 -0.059295654
0.6845703 -1.7714844 0.24694824 -0.45043945 -0.29223633 0.7763672 0.0949707 1.5751953

conv2d_27_1/y:0 f4 [96]
00000000: 0080 92be 00e0 ddbf 0080 f23e 0040 a93f
00000010: 0040 143f 0040 443f 00a0 57be 0020 d9bf
00000020: 0080 f93e 0020 b43f 0060 153f 0080 f73e
00000030: 0060 cfbe 00a0 913f 00c0 21bf 00e0 e93f
00000040: 0080 f23f 0020 e93d 0020 b63f 00a0 8b40
00000050: 0020 70bf 0080 86bf 00c0 39be 00e0 1f3f
00000060: 0080 2040 0000 0440 0060 a03f 0000 05c0
00000070: 0080 f3be 0000 083f 0080 e43f 0040 e63f
00000080: 00a0 cebe 00e0 0b3f 0060 773e 00a0 953f
00000090: 00e0 01c0 0080 80bf 0060 863f 0000 503f
000000a0: 00c0 523e 00e0 3c3f 00e0 5e3e 0060 573f
000000b0: 0020 0abf 00a0 6b3f 00e0 fabe 00c0 ab3f
000000c0: 00a0 d03f 0020 77be 0080 bf3f 0040 86be
000000d0: 0040 a93f 00a0 2b40 0040 283f 00e0 a03f
000000e0: 0020 e1ba 0080 843f 0040 a73f 0080 f53f
000000f0: 00c0 72bd 00a0 42bf 00c0 1b40 00c0 d0bd
00000100: 0020 333f 0060 d73d 0020 5c3f 0040 c1be
00000110: 0000 0b40 0040 0bbf 00a0 bcbe 0000 d23f
00000120: 00a0 a23f 00a0 bd3f 00a0 ac3e 0080 da3e
00000130: 0060 2240 0060 aa3f 0000 b0bd 00e0 4f3e
00000140: 0040 9b3f 0060 a93f 0040 d53f 0000 653f
00000150: 0020 1640 0060 b33f 00a0 743d 0060 2dbf
00000160: 0080 f4be 0060 bebe 00e0 ef3f 00a0 6f3f
00000170: 0060 f13e 0080 2c3f 0080 f6be 0060 e93f
-0.2861328 -1.7333984 0.4736328 1.3222656 0.57910156 0.76660156 -0.21057129 -1.6962891
0.4873047 1.4072266 0.5834961 0.48339844 -0.4050293 1.1376953 -0.63183594 1.8271484
1.8945312 0.11383057 1.4228516 4.3632812 -0.9379883 -1.0507812 -0.18139648 0.6245117
2.5078125 2.0625 1.2529297 -2.078125 -0.47558594 0.53125 1.7851562 1.7988281
-0.40356445 0.5463867 0.24157715 1.1689453 -2.0292969 -1.0039062 1.0498047 0.8125
0.20581055 0.73779297 0.21765137 0.8413086 -0.5395508 0.92041016 -0.48999023 1.3417969
1.6298828 -0.24133301 1.4960938 -0.26220703 1.3222656 2.6816406 0.65722656 1.2568359
-0.0017175674 1.0351562 1.3066406 1.9179688 -0.059265137 -0.7602539 2.4335938 -0.10192871
0.69970703 0.105163574 0.8598633 -0.3774414 2.171875 -0.5439453 -0.3684082 1.640625
1.2705078 1.4814453 0.3371582 0.4267578 2.5371094 1.3310547 -0.0859375 0.20300293
1.2128906 1.3232422 1.6660156 0.89453125 2.3457031 1.4013672 0.0597229 -0.6772461
-0.47753906 -0.37182617 1.8740234 0.93603516 0.47143555 0.6738281 -0.4814453 1.8232422

conv2d_26_1/y:0 f4 [24]
00000000: 00c0 9fbe 0080 44bf 00a0 21bf 00e0 fdbf
00000010: 0000 dabe 0000 69bf 0000 713d 00c0 26bf
00000020: 0040 c4bf 0060 f9be 00a0 e9be 00e0 99be
00000030: 0080 cc3e 0000 1fbf 0060 61bf 00e0 52bf
00000040: 0020 ecbc 00e0 8bbf 00e0 8dbf 00c0 c5be
00000050: 00a0 acbe 0060 10be 0060 d0be 0080 933e
-0.31201172 -0.7675781 -0.63134766 -1.9833984 -0.42578125 -0.91015625 0.05883789 -0.6513672
-1.5332031 -0.48706055 -0.45629883 -0.3005371 0.39941406 -0.62109375 -0.8803711 -0.82373047
-0.028823853 -1.0927734 -1.1083984 -0.38623047 -0.3371582 -0.14099121 -0.40698242 0.28808594

conv2d_25_1/y:0 f4 [96]
00000000: 0020 ccbd 0060 30c0 0080 ecbf 0080 e7bf
00000010: 0020 6ebf 0040 30bf 0060 1340 0060 fe3f
00000020: 00e0 0ec0 0040 c63f 00e0 d1bf 00c0 c8bf
00000030: 0000 dabd 00e0 863f 0020 94bf 0040 31c0
00000040: 0060 e0bf 0000 74bf 00e0 743f 0080 4fbf
00000050: 00c0 883d 0040 53bd 00e0 06c0 00a0 5dbf
00000060: 0060 ecbf 0080 f43d 0080 0b40 00c0 64bf
00000070: 0020 59be 0020 2c3c 00a0 a3bf 00a0 38bf
00000080: 0020 9dbf 0020 f0bb 0060 8cbf 00a0 bfbe
00000090: 0060 9c3f 0020 b0bf 0080 a7be 0020 033f
000000a0: 0060 683f 0020 e9bd 0000 0fbf 00e0 18be
000000b0: 00c0 133f 0000 6cbf 00e0 1ebf 0040 3abf
000000c0: 0080 173f 00e0 f23f 0000 47c0 0060 16bf
000000d0: 0020 01bf 0000 93be 00e0 853f 0000 afbf
000000e0: 0060 6ebf 00a0 eb3f 00a0 ffbe 00c0 923d
000000f0: 0000 3ec0 0060 c83f 0080 073d 0080 e1bf
00000100: 0060 a6bf 0040 68be 0020 90bf 00c0 4ebf
00000110: 0020 383f 0040 f6be 0020 023f 0020 b9be
00000120: 0020 9fbe 0020 0e3f 0060 9cbf 0000 7abf
00000130: 0040 4e3f 0080 663d 0020 8fbe 0000 653f
00000140: 0040 69bf 0020 9bbd 0020 a93f 00e0 7dbf
00000150: 0060 7f3f 0080 5840 0080 0abf 0020 85bf
00000160: 0000 9e3e 00c0 523d 00e0 42bf 0060 2ac0
00000170: 0060 c63f 0020 0abf 0080 863f 0080 b8bf
-0.09967041 -2.7558594 -1.8476562 -1.8085938 -0.9301758 -0.68847656 2.3027344 1.9873047
-2.2324219 1.5488281 -1.6396484 -1.5683594 -0.10644531 1.0537109 -1.1572266 -2.7695312
-1.7529297 -0.953125 0.95654297 -0.8105469 0.06677246 -0.051574707 -2.1074219 -0.86572266
-1.8466797 0.119384766 2.1796875 -0.8935547 -0.21203613 0.010505676 -1.2783203 -0.7211914
-1.2275391 -0.0073280334 -1.0966797 -0.37426758 1.2216797 -1.3759766 -0.32714844 0.51220703
0.90771484 -0.11383057 -0.55859375 -0.14929199 0.57714844 -0.921875 -0.62060547 -0.72753906
0.5917969 1.8974609 -3.109375 -0.58740234 -0.50439453 -0.28710938 1.0458984 -1.3671875
-0.93115234 1.8408203 -0.49926758 0.07165527 -2.96875 1.5654297 0.033081055 -1.7617188
-1.2998047 -0.22680664 -1.1259766 -0.8076172 0.7192383 -0.48095703 0.5083008 -0.36157227
-0.31079102 0.5551758 -1.2216797 -0.9765625 0.80566406 0.056274414 -0.27954102 0.89453125
-0.9111328 -0.07574463 1.3212891 -0.9916992 0.9975586 3.3828125 -0.5410156 -1.0400391
0.30859375 0.051452637 -0.76123047 -2.6621094 1.5498047 -0.5395508 1.0507812 -1.4414062

conv2d_24_1/y:0 f4 [32]
00000000: 00e0 0e3f 00e0 033f 0020 bbbe 00c0 dfbb
00000010: 0020 8bbd 0060 bebe 0020 fa3e 0000 cebd
00000020: 00e0 0b3f 0000 e6be 0040 443e 0040 293e
00000030: 0080 c03e 0020 0e3f 00c0 293e 00a0 19bf
00000040: 0080 4f3f 00c0 cf3e 0040 5cbf 0020 673e
00000050: 00c0 343e 0020 2fbe 0040 88be 0080 30be
00000060: 00c0 15bd 0020 d3be 00a0 5d3f 0000 94bc
00000070: 0060 0cbf 0000 dcbe 0000 85be 0000 1e3f
0.55810547 0.5151367 -0.36547852 -0.006828308 -0.06793213 -0.37182617 0.4885254 -0.10058594
0.5463867 -0.44921875 0.19165039 0.1652832 0.37597656 0.5551758 0.16577148 -0.60009766
0.8105469 0.40576172 -0.86035156 0.22570801 0.17651367 -0.17102051 -0.26611328 -0.17236328
-0.03656006 -0.41235352 0.86572266 -0.018066406 -0.54833984 -0.4296875 -0.25976562 0.6171875

conv2d_23_1/y:0 f4 [96]
00000000: 0060 cd3f 00e0 1440 00e0 ae3d 0080 17be
00000010: 0060 3b3f 0080 29bc 0060 473f 00e0 8c3f
00000020: 00a0 8140 0000 1340 0020 35bd 0040 de3f
00000030: 0020 3940 00c0 563f 00c0 43be 0040 d5bf
00000040: 00e0 f1be 0000 153f 00e0 e93f 0000 843f
00000050: 0060 623f 00e0 1640 00e0 793e 00e0 483f
00000060: 0000 6640 00e0 d53f 0000 6640 0080 0d40
00000070: 0080 593f 00a0 1b40 0080 1e40 0000 b23f
00000080: 00e0 523f 00a0 af3f 00c0 953e 0080 1940
00000090: 00e0 4b3f 0040 933f 0020 ff3f 00c0 f63f
000000a0: 0000 913f 0020 0140 0080 be3f 0060 5040
000000b0: 0040 3c40 00e0 13bd 0000 abbe 0020 95bf
000000c0: 0000 e03f 00c0 94be 00e0 9e3f 0060 36bf
000000d0: 0020 b9bd 0040 1640 00a0 943f 00e0 db3e
000000e0: 00c0 803f 0080 e13f 00a0 cd3d 0080 013f
000000f0: 00c0 4e3f 0000 783f 0020 1e40 0000 1940
00000100: 0000 c8be 00c0 0940 00e0 1940 0040 da3e
00000110: 00e0 8b3f 00a0 f93f 0020 6140 0040 753f
00000120: 0000 923e 0020 5ebe 0080 0b3f 00a0 04c0
00000130: 0040 2d3f 0000 a23f 0040 d43e 00a0 aa3f
00000140: 0000 673f 00c0 503e 00a0 c53f 0020 023f
00000150: 0040 e13f 0020 c73f 0040 0a40 00e0 f13f
00000160: 00a0 693f 0000 88bf 0000 adbe 0020 073f
00000170: 00a0 8a3f 0060 873f 00e0 453f 0040 de3f
1.6044922 2.3261719 0.08538818 -0.14794922 0.7319336 -0.010345459 0.7788086 1.1005859
4.0507812 2.296875 -0.04421997 1.7363281 2.8925781 0.8388672 -0.19116211 -1.6660156
-0.4724121 0.58203125 1.8271484 1.03125 0.88427734 2.3574219 0.24401855 0.78466797
3.59375 1.6708984 3.59375 2.2109375 0.8496094 2.4316406 2.4765625 1.390625
0.82373047 1.3720703 0.29248047 2.3984375 0.7963867 1.1503906 1.9931641 1.9277344
1.1328125 2.0175781 1.4882812 3.2558594 2.9414062 -0.036102295 -0.33398438 -1.1650391
1.75 -0.29052734 1.2412109 -0.71240234 -0.09039307 2.3476562 1.1611328 0.42944336
1.0058594 1.7617188 0.10040283 0.5058594 0.8076172 0.96875 2.4707031 2.390625
-0.390625 2.1523438 2.4042969 0.42626953 1.0927734 1.9501953 3.5175781 0.9580078
0.28515625 -0.21691895 0.5449219 -2.0722656 0.6767578 1.265625 0.41455078 1.3330078
0.90234375 0.20385742 1.5439453 0.5083008 1.7597656 1.5556641 2.1601562 1.8896484
0.91259766 -1.0625 -0.33789062 0.52783203 1.0830078 1.0576172 0.7729492 1.7363281

conv2d_22_1/y:0 f4 [24]
00000000: 00e0 1ebf 00e0 f7be 0080 8fbd 0000 41bf
00000010: 0020 40bf 0000 c7bf 00a0 11bf 00c0 f8be
00000020: 00c0 613e 0040 12bf 00e0 e7be 0060 27bf
00000030: 0020 13bf 00e0 3fbd 00a0 3fbf 00a0 83bc
00000040: 0000 b03e 0080 99be 0020 2fbf 00e0 94bd
00000050: 0080 16bf 00a0 67bf 0060 e63e 0080 82bf
-0.62060547 -0.48413086 -0.07006836 -0.75390625 -0.7504883 -1.5546875 -0.56884766 -0.48583984
0.22045898 -0.57128906 -0.45288086 -0.6538086 -0.57470703 -0.046844482 -0.74853516 -0.016067505
0.34375 -0.2998047 -0.68408203 -0.07269287 -0.5878906 -0.90478516 0.44995117 -1.0195312
